…
   "execution_count": 19,
   "id": "ee3bc95b",
   "metadata": {},
   "outputs": [
    {
     "name": "stdout",
     "output_type": "stream",
     "text": [
      "Model: \"model\"\n",
      "_________________________________________________________________\n",
      " Layer (type)                Output Shape              Param #   \n",
      "=================================================================\n",
      " input_1 (InputLayer)        [(None, 13, 1)]           0         \n",
      "                                                                 \n",
      " lstm (LSTM)                 (None, 13, 48)            9600      \n",
      "                                                                 \n",
      " reshape (Reshape)           (None, 13, 48)            0         \n",
      "                                                                 \n",
      " conv1d (Conv1D)             (None, 13, 64)            18496     \n",
      "                                                                 \n",
      " dropout (Dropout)           (None, 13, 64)            0         \n",
      "                                                                 \n",
      " flatten (Flatten)           (None, 832)               0         \n",
      "                                                                 \n",
      " dense (Dense)               (None, 48)                39984     \n",
      "                                                                 \n",
      " dense_1 (Dense)             (None, 5)                 245       \n",
      "                                                                 \n",
      "=================================================================\n",
      "Total params: 68,325\n",
      "Trainable params: 68,325\n",
      "Non-trainable params: 0\n",
      "_________________________________________________________________\n"
     ]
    }
   ],
   "source": [
    "input_layer = Input(shape=(13, 1))\n",
…
